…
TRAIN Length: 2593 255 TEST Length: 2804 565
DATA_PROFILE   train: 2593 train2: 2804 test: 2804
DATASET.SHAPE: <data_loader.GetTrainLoader object at 0x7f48831213a0> True
DATASET.SHAPE: <data_loader.GetTrainLoader object at 0x7f487ad79f10> True
DATASET.SHAPE: <data_loader.GetTestLoader object at 0x7f487ad27e50> False
CLASS: 4 565
LLL: {}
BOTTLENECK_LIST: [Linear(in_features=2048, out_features=256, bias=True), ReLU()]
TYPE: {'loss_type': 'twommd', 'max_iter': 17400, 'num_class': 4, 'my_person_item': <my_person_item.PersonItem object at 0x7f487ad27850>}
TransferNet(
  (base_network): ResNet(
    (conv1): Conv1d(3, 64, kernel_size=(3,), stride=(2,), padding=(1,), bias=False)
    (bn1): BatchNorm1d(64, eps=1e-05, momentum=0.1, affine=True, track_running_stats=True)
    (relu): ReLU(inplace=True)
    (maxpool): MaxPool1d(kernel_size=3, stride=2, padding=1, dilation=1, ceil_mode=False)
    (layer1): Sequential(
      (0): Bottleneck(
        (conv1): Conv1d(64, 64, kernel_size=(7,), stride=(1,), padding=(3,), bias=False)
        (bn1): BatchNorm1d(64, eps=1e-05, momentum=0.1, affine=True, track_running_stats=True)
        (conv2): Conv1d(64, 64, kernel_size=(11,), stride=(1,), padding=(5,), bias=False)
        (bn2): BatchNorm1d(64, eps=1e-05, momentum=0.1, affine=True, track_running_stats=True)
        (conv3): Conv1d(64, 256, kernel_size=(7,), stride=(1,), padding=(3,), bias=False)
        (bn3): BatchNorm1d(256, eps=1e-05, momentum=0.1, affine=True, track_running_stats=True)
        (relu): ReLU(inplace=True)
        (downsample): Sequential(
          (0): Conv1d(64, 256, kernel_size=(1,), stride=(1,), bias=False)
          (1): BatchNorm1d(256, eps=1e-05, momentum=0.1, affine=True, track_running_stats=True)
        )
        (dropout): Dropout(p=0.2, inplace=False)
      )
      (1): Bottleneck(
        (conv1): Conv1d(256, 64, kernel_size=(7,), stride=(1,), padding=(3,), bias=False)
        (bn1): BatchNorm1d(64, eps=1e-05, momentum=0.1, affine=True, track_running_stats=True)
        (conv2): Conv1d(64, 64, kernel_size=(11,), stride=(1,), padding=(5,), bias=False)
        (bn2): BatchNorm1d(64, eps=1e-05, momentum=0.1, affine=True, track_running_stats=True)
        (conv3): Conv1d(64, 256, kernel_size=(7,), stride=(1,), padding=(3,), bias=False)
        (bn3): BatchNorm1d(256, eps=1e-05, momentum=0.1, affine=True, track_running_stats=True)
        (relu): ReLU(inplace=True)
        (dropout): Dropout(p=0.2, inplace=False)
      )
      (2): Bottleneck(
        (conv1): Conv1d(256, 64, kernel_size=(7,), stride=(1,), padding=(3,), bias=False)
        (bn1): BatchNorm1d(64, eps=1e-05, momentum=0.1, affine=True, track_running_stats=True)
        (conv2): Conv1d(64, 64, kernel_size=(11,), stride=(1,), padding=(5,), bias=False)
        (bn2): BatchNorm1d(64, eps=1e-05, momentum=0.1, affine=True, track_running_stats=True)
        (conv3): Conv1d(64, 256, kernel_size=(7,), stride=(1,), padding=(3,), bias=False)
        (bn3): BatchNorm1d(256, eps=1e-05, momentum=0.1, affine=True, track_running_stats=True)
        (relu): ReLU(inplace=True)
        (dropout): Dropout(p=0.2, inplace=False)
      )
    )
    (layer2): Sequential(
      (0): Bottleneck(
        (conv1): Conv1d(256, 128, kernel_size=(7,), stride=(1,), padding=(3,), bias=False)
        (bn1): BatchNorm1d(128, eps=1e-05, momentum=0.1, affine=True, track_running_stats=True)
        (conv2): Conv1d(128, 128, kernel_size=(11,), stride=(2,), padding=(5,), bias=False)
        (bn2): BatchNorm1d(128, eps=1e-05, momentum=0.1, affine=True, track_running_stats=True)
        (conv3): Conv1d(128, 512, kernel_size=(7,), stride=(1,), padding=(3,), bias=False)
        (bn3): BatchNorm1d(512, eps=1e-05, momentum=0.1, affine=True, track_running_stats=True)
        (relu): ReLU(inplace=True)
        (downsample): Sequential(
          (0): Conv1d(256, 512, kernel_size=(1,), stride=(2,), bias=False)
          (1): BatchNorm1d(512, eps=1e-05, momentum=0.1, affine=True, track_running_stats=True)
        )
        (dropout): Dropout(p=0.2, inplace=False)
      )
      (1): Bottleneck(
        (conv1): Conv1d(512, 128, kernel_size=(7,), stride=(1,), padding=(3,), bias=False)
        (bn1): BatchNorm1d(128, eps=1e-05, momentum=0.1, affine=True, track_running_stats=True)
        (conv2): Conv1d(128, 128, kernel_size=(11,), stride=(1,), padding=(5,), bias=False)
        (bn2): BatchNorm1d(128, eps=1e-05, momentum=0.1, affine=True, track_running_stats=True)
        (conv3): Conv1d(128, 512, kernel_size=(7,), stride=(1,), padding=(3,), bias=False)
        (bn3): BatchNorm1d(512, eps=1e-05, momentum=0.1, affine=True, track_running_stats=True)
        (relu): ReLU(inplace=True)
        (dropout): Dropout(p=0.2, inplace=False)
      )
      (2): Bottleneck(
        (conv1): Conv1d(512, 128, kernel_size=(7,), stride=(1,), padding=(3,), bias=False)
        (bn1): BatchNorm1d(128, eps=1e-05, momentum=0.1, affine=True, track_running_stats=True)
        (conv2): Conv1d(128, 128, kernel_size=(11,), stride=(1,), padding=(5,), bias=False)
        (bn2): BatchNorm1d(128, eps=1e-05, momentum=0.1, affine=True, track_running_stats=True)
        (conv3): Conv1d(128, 512, kernel_size=(7,), stride=(1,), padding=(3,), bias=False)
        (bn3): BatchNorm1d(512, eps=1e-05, momentum=0.1, affine=True, track_running_stats=True)
        (relu): ReLU(inplace=True)
        (dropout): Dropout(p=0.2, inplace=False)
      )
      (3): Bottleneck(
        (conv1): Conv1d(512, 128, kernel_size=(7,), stride=(1,), padding=(3,), bias=False)
        (bn1): BatchNorm1d(128, eps=1e-05, momentum=0.1, affine=True, track_running_stats=True)
        (conv2): Conv1d(128, 128, kernel_size=(11,), stride=(1,), padding=(5,), bias=False)
        (bn2): BatchNorm1d(128, eps=1e-05, momentum=0.1, affine=True, track_running_stats=True)
        (conv3): Conv1d(128, 512, kernel_size=(7,), stride=(1,), padding=(3,), bias=False)
        (bn3): BatchNorm1d(512, eps=1e-05, momentum=0.1, affine=True, track_running_stats=True)
        (relu): ReLU(inplace=True)
        (dropout): Dropout(p=0.2, inplace=False)
      )
    )
    (layer3): Sequential(
      (0): Bottleneck(
        (conv1): Conv1d(512, 256, kernel_size=(7,), stride=(1,), padding=(3,), bias=False)
        (bn1): BatchNorm1d(256, eps=1e-05, momentum=0.1, affine=True, track_running_stats=True)
        (conv2): Conv1d(256, 256, kernel_size=(11,), stride=(2,), padding=(5,), bias=False)
        (bn2): BatchNorm1d(256, eps=1e-05, momentum=0.1, affine=True, track_running_stats=True)
        (conv3): Conv1d(256, 1024, kernel_size=(7,), stride=(1,), padding=(3,), bias=False)
        (bn3): BatchNorm1d(1024, eps=1e-05, momentum=0.1, affine=True, track_running_stats=True)
        (relu): ReLU(inplace=True)
        (downsample): Sequential(
          (0): Conv1d(512, 1024, kernel_size=(1,), stride=(2,), bias=False)
          (1): BatchNorm1d(1024, eps=1e-05, momentum=0.1, affine=True, track_running_stats=True)
        )
        (dropout): Dropout(p=0.2, inplace=False)
      )
      (1): Bottleneck(
        (conv1): Conv1d(1024, 256, kernel_size=(7,), stride=(1,), padding=(3,), bias=False)
        (bn1): BatchNorm1d(256, eps=1e-05, momentum=0.1, affine=True, track_running_stats=True)
        (conv2): Conv1d(256, 256, kernel_size=(11,), stride=(1,), padding=(5,), bias=False)
        (bn2): BatchNorm1d(256, eps=1e-05, momentum=0.1, affine=True, track_running_stats=True)
        (conv3): Conv1d(256, 1024, kernel_size=(7,), stride=(1,), padding=(3,), bias=False)
        (bn3): BatchNorm1d(1024, eps=1e-05, momentum=0.1, affine=True, track_running_stats=True)
        (relu): ReLU(inplace=True)
        (dropout): Dropout(p=0.2, inplace=False)
      )
      (2): Bottleneck(
        (conv1): Conv1d(1024, 256, kernel_size=(7,), stride=(1,), padding=(3,), bias=False)
        (bn1): BatchNorm1d(256, eps=1e-05, momentum=0.1, affine=True, track_running_stats=True)
        (conv2): Conv1d(256, 256, kernel_size=(11,), stride=(1,), padding=(5,), bias=False)
        (bn2): BatchNorm1d(256, eps=1e-05, momentum=0.1, affine=True, track_running_stats=True)
        (conv3): Conv1d(256, 1024, kernel_size=(7,), stride=(1,), padding=(3,), bias=False)
        (bn3): BatchNorm1d(1024, eps=1e-05, momentum=0.1, affine=True, track_running_stats=True)
        (relu): ReLU(inplace=True)
        (dropout): Dropout(p=0.2, inplace=False)
      )
      (3): Bottleneck(
        (conv1): Conv1d(1024, 256, kernel_size=(7,), stride=(1,), padding=(3,), bias=False)
        (bn1): BatchNorm1d(256, eps=1e-05, momentum=0.1, affine=True, track_running_stats=True)
        (conv2): Conv1d(256, 256, kernel_size=(11,), stride=(1,), padding=(5,), bias=False)
        (bn2): BatchNorm1d(256, eps=1e-05, momentum=0.1, affine=True, track_running_stats=True)
        (conv3): Conv1d(256, 1024, kernel_size=(7,), stride=(1,), padding=(3,), bias=False)
        (bn3): BatchNorm1d(1024, eps=1e-05, momentum=0.1, affine=True, track_running_stats=True)
        (relu): ReLU(inplace=True)
        (dropout): Dropout(p=0.2, inplace=False)
      )
      (4): Bottleneck(
        (conv1): Conv1d(1024, 256, kernel_size=(7,), stride=(1,), padding=(3,), bias=False)
        (bn1): BatchNorm1d(256, eps=1e-05, momentum=0.1, affine=True, track_running_stats=True)
        (conv2): Conv1d(256, 256, kernel_size=(11,), stride=(1,), padding=(5,), bias=False)
        (bn2): BatchNorm1d(256, eps=1e-05, momentum=0.1, affine=True, track_running_stats=True)
        (conv3): Conv1d(256, 1024, kernel_size=(7,), stride=(1,), padding=(3,), bias=False)
        (bn3): BatchNorm1d(1024, eps=1e-05, momentum=0.1, affine=True, track_running_stats=True)
        (relu): ReLU(inplace=True)
        (dropout): Dropout(p=0.2, inplace=False)
      )
      (5): Bottleneck(
        (conv1): Conv1d(1024, 256, kernel_size=(7,), stride=(1,), padding=(3,), bias=False)
        (bn1): BatchNorm1d(256, eps=1e-05, momentum=0.1, affine=True, track_running_stats=True)
        (conv2): Conv1d(256, 256, kernel_size=(11,), stride=(1,), padding=(5,), bias=False)
        (bn2): BatchNorm1d(256, eps=1e-05, momentum=0.1, affine=True, track_running_stats=True)
        (conv3): Conv1d(256, 1024, kernel_size=(7,), stride=(1,), padding=(3,), bias=False)
        (bn3): BatchNorm1d(1024, eps=1e-05, momentum=0.1, affine=True, track_running_stats=True)
        (relu): ReLU(inplace=True)
        (dropout): Dropout(p=0.2, inplace=False)
      )
    )
    (layer4): Sequential(
      (0): Bottleneck(
        (conv1): Conv1d(1024, 512, kernel_size=(7,), stride=(1,), padding=(3,), bias=False)
        (bn1): BatchNorm1d(512, eps=1e-05, momentum=0.1, affine=True, track_running_stats=True)
        (conv2): Conv1d(512, 512, kernel_size=(11,), stride=(2,), padding=(5,), bias=False)
        (bn2): BatchNorm1d(512, eps=1e-05, momentum=0.1, affine=True, track_running_stats=True)
        (conv3): Conv1d(512, 2048, kernel_size=(7,), stride=(1,), padding=(3,), bias=False)
        (bn3): BatchNorm1d(2048, eps=1e-05, momentum=0.1, affine=True, track_running_stats=True)
        (relu): ReLU(inplace=True)
        (downsample): Sequential(
          (0): Conv1d(1024, 2048, kernel_size=(1,), stride=(2,), bias=False)
          (1): BatchNorm1d(2048, eps=1e-05, momentum=0.1, affine=True, track_running_stats=True)
        )
        (dropout): Dropout(p=0.2, inplace=False)
      )
      (1): Bottleneck(
        (conv1): Conv1d(2048, 512, kernel_size=(7,), stride=(1,), padding=(3,), bias=False)
        (bn1): BatchNorm1d(512, eps=1e-05, momentum=0.1, affine=True, track_running_stats=True)
        (conv2): Conv1d(512, 512, kernel_size=(11,), stride=(1,), padding=(5,), bias=False)
        (bn2): BatchNorm1d(512, eps=1e-05, momentum=0.1, affine=True, track_running_stats=True)
        (conv3): Conv1d(512, 2048, kernel_size=(7,), stride=(1,), padding=(3,), bias=False)
        (bn3): BatchNorm1d(2048, eps=1e-05, momentum=0.1, affine=True, track_running_stats=True)
        (relu): ReLU(inplace=True)
        (dropout): Dropout(p=0.2, inplace=False)
      )
      (2): Bottleneck(
        (conv1): Conv1d(2048, 512, kernel_size=(7,), stride=(1,), padding=(3,), bias=False)
        (bn1): BatchNorm1d(512, eps=1e-05, momentum=0.1, affine=True, track_running_stats=True)
        (conv2): Conv1d(512, 512, kernel_size=(11,), stride=(1,), padding=(5,), bias=False)
        (bn2): BatchNorm1d(512, eps=1e-05, momentum=0.1, affine=True, track_running_stats=True)
        (conv3): Conv1d(512, 2048, kernel_size=(7,), stride=(1,), padding=(3,), bias=False)
        (bn3): BatchNorm1d(2048, eps=1e-05, momentum=0.1, affine=True, track_running_stats=True)
        (relu): ReLU(inplace=True)
        (dropout): Dropout(p=0.2, inplace=False)
      )
    )
    (avgpool): AdaptiveAvgPool1d(output_size=1)
  )
  (bottleneck_layer): Sequential(
    (0): Linear(in_features=2048, out_features=256, bias=True)
    (1): ReLU()
  )
  (classifier_layer): Linear(in_features=256, out_features=4, bias=True)
  (adapt_loss): TransferLoss(
    (loss_func): TWOMMDLoss()
  )
  (criterion): CrossEntropyLoss()
)
initial_lr 1.0
transfer_world
1.8.1+cu111
True
LEN: 0 0
LOADER: <data_loader.InfiniteDataLoader object at 0x7f487ad79400> <data_loader.InfiniteDataLoader object at 0x7f487ad272b0>
N_batch: 87
n_person 565
SAMPLE
Traceback (most recent call last):
  File "main.py", line 552, in <module>
…
