…
transfer
TRAIN Length: 2593 255 TEST Length: 55571 1995
DATA_PROFILE   train: 2593 train2: 55571 test: 55571
DATASET.SHAPE: <data_loader.GetLoader object at 0x7fa9782977c0> True
DATASET.SHAPE: <data_loader.GetLoader object at 0x7fa977ffad60> True
DATASET.SHAPE: <data_loader.GetLoader object at 0x7fa97045c8e0> False
CLASS: 4 1995
LLL: {}
BOTTLENECK_LIST: [Linear(in_features=512, out_features=256, bias=True), ReLU()]
TYPE: {'loss_type': 'threemmd', 'max_iter': 20000, 'num_class': 4, 'my_person_item': <my_person_item.PersonItem object at 0x7fa9704a4700>}
TransferNet(
  (base_network): ResNet(
    (conv1): Conv1d(3, 64, kernel_size=(3,), stride=(2,), padding=(1,), bias=False)
    (bn1): BatchNorm1d(64, eps=1e-05, momentum=0.1, affine=True, track_running_stats=True)
    (relu): ReLU(inplace=True)
    (maxpool): MaxPool1d(kernel_size=3, stride=2, padding=1, dilation=1, ceil_mode=False)
    (layer1): Sequential(
      (0): BasicBlock(
        (conv1): Conv1d(64, 64, kernel_size=(7,), stride=(1,), padding=(3,), bias=False)
        (bn1): BatchNorm1d(64, eps=1e-05, momentum=0.1, affine=True, track_running_stats=True)
        (relu): ReLU(inplace=True)
        (conv2): Conv1d(64, 64, kernel_size=(7,), stride=(1,), padding=(3,), bias=False)
        (bn2): BatchNorm1d(64, eps=1e-05, momentum=0.1, affine=True, track_running_stats=True)
        (dropout): Dropout(p=0.2, inplace=False)
      )
      (1): BasicBlock(
        (conv1): Conv1d(64, 64, kernel_size=(7,), stride=(1,), padding=(3,), bias=False)
        (bn1): BatchNorm1d(64, eps=1e-05, momentum=0.1, affine=True, track_running_stats=True)
        (relu): ReLU(inplace=True)
        (conv2): Conv1d(64, 64, kernel_size=(7,), stride=(1,), padding=(3,), bias=False)
        (bn2): BatchNorm1d(64, eps=1e-05, momentum=0.1, affine=True, track_running_stats=True)
        (dropout): Dropout(p=0.2, inplace=False)
      )
      (2): BasicBlock(
        (conv1): Conv1d(64, 64, kernel_size=(7,), stride=(1,), padding=(3,), bias=False)
        (bn1): BatchNorm1d(64, eps=1e-05, momentum=0.1, affine=True, track_running_stats=True)
        (relu): ReLU(inplace=True)
        (conv2): Conv1d(64, 64, kernel_size=(7,), stride=(1,), padding=(3,), bias=False)
        (bn2): BatchNorm1d(64, eps=1e-05, momentum=0.1, affine=True, track_running_stats=True)
        (dropout): Dropout(p=0.2, inplace=False)
      )
    )
    (layer2): Sequential(
      (0): BasicBlock(
        (conv1): Conv1d(64, 128, kernel_size=(7,), stride=(2,), padding=(3,), bias=False)
        (bn1): BatchNorm1d(128, eps=1e-05, momentum=0.1, affine=True, track_running_stats=True)
        (relu): ReLU(inplace=True)
        (conv2): Conv1d(128, 128, kernel_size=(7,), stride=(1,), padding=(3,), bias=False)
        (bn2): BatchNorm1d(128, eps=1e-05, momentum=0.1, affine=True, track_running_stats=True)
        (downsample): Sequential(
          (0): Conv1d(64, 128, kernel_size=(1,), stride=(2,), bias=False)
          (1): BatchNorm1d(128, eps=1e-05, momentum=0.1, affine=True, track_running_stats=True)
        )
        (dropout): Dropout(p=0.2, inplace=False)
      )
      (1): BasicBlock(
        (conv1): Conv1d(128, 128, kernel_size=(7,), stride=(1,), padding=(3,), bias=False)
        (bn1): BatchNorm1d(128, eps=1e-05, momentum=0.1, affine=True, track_running_stats=True)
        (relu): ReLU(inplace=True)
        (conv2): Conv1d(128, 128, kernel_size=(7,), stride=(1,), padding=(3,), bias=False)
        (bn2): BatchNorm1d(128, eps=1e-05, momentum=0.1, affine=True, track_running_stats=True)
        (dropout): Dropout(p=0.2, inplace=False)
      )
      (2): BasicBlock(
        (conv1): Conv1d(128, 128, kernel_size=(7,), stride=(1,), padding=(3,), bias=False)
        (bn1): BatchNorm1d(128, eps=1e-05, momentum=0.1, affine=True, track_running_stats=True)
        (relu): ReLU(inplace=True)
        (conv2): Conv1d(128, 128, kernel_size=(7,), stride=(1,), padding=(3,), bias=False)
        (bn2): BatchNorm1d(128, eps=1e-05, momentum=0.1, affine=True, track_running_stats=True)
        (dropout): Dropout(p=0.2, inplace=False)
      )
      (3): BasicBlock(
        (conv1): Conv1d(128, 128, kernel_size=(7,), stride=(1,), padding=(3,), bias=False)
        (bn1): BatchNorm1d(128, eps=1e-05, momentum=0.1, affine=True, track_running_stats=True)
        (relu): ReLU(inplace=True)
        (conv2): Conv1d(128, 128, kernel_size=(7,), stride=(1,), padding=(3,), bias=False)
        (bn2): BatchNorm1d(128, eps=1e-05, momentum=0.1, affine=True, track_running_stats=True)
        (dropout): Dropout(p=0.2, inplace=False)
      )
    )
    (layer3): Sequential(
      (0): BasicBlock(
        (conv1): Conv1d(128, 256, kernel_size=(7,), stride=(2,), padding=(3,), bias=False)
        (bn1): BatchNorm1d(256, eps=1e-05, momentum=0.1, affine=True, track_running_stats=True)
        (relu): ReLU(inplace=True)
        (conv2): Conv1d(256, 256, kernel_size=(7,), stride=(1,), padding=(3,), bias=False)
        (bn2): BatchNorm1d(256, eps=1e-05, momentum=0.1, affine=True, track_running_stats=True)
        (downsample): Sequential(
          (0): Conv1d(128, 256, kernel_size=(1,), stride=(2,), bias=False)
          (1): BatchNorm1d(256, eps=1e-05, momentum=0.1, affine=True, track_running_stats=True)
        )
        (dropout): Dropout(p=0.2, inplace=False)
      )
      (1): BasicBlock(
        (conv1): Conv1d(256, 256, kernel_size=(7,), stride=(1,), padding=(3,), bias=False)
        (bn1): BatchNorm1d(256, eps=1e-05, momentum=0.1, affine=True, track_running_stats=True)
        (relu): ReLU(inplace=True)
        (conv2): Conv1d(256, 256, kernel_size=(7,), stride=(1,), padding=(3,), bias=False)
        (bn2): BatchNorm1d(256, eps=1e-05, momentum=0.1, affine=True, track_running_stats=True)
        (dropout): Dropout(p=0.2, inplace=False)
      )
      (2): BasicBlock(
        (conv1): Conv1d(256, 256, kernel_size=(7,), stride=(1,), padding=(3,), bias=False)
        (bn1): BatchNorm1d(256, eps=1e-05, momentum=0.1, affine=True, track_running_stats=True)
        (relu): ReLU(inplace=True)
        (conv2): Conv1d(256, 256, kernel_size=(7,), stride=(1,), padding=(3,), bias=False)
        (bn2): BatchNorm1d(256, eps=1e-05, momentum=0.1, affine=True, track_running_stats=True)
        (dropout): Dropout(p=0.2, inplace=False)
      )
      (3): BasicBlock(
        (conv1): Conv1d(256, 256, kernel_size=(7,), stride=(1,), padding=(3,), bias=False)
        (bn1): BatchNorm1d(256, eps=1e-05, momentum=0.1, affine=True, track_running_stats=True)
        (relu): ReLU(inplace=True)
        (conv2): Conv1d(256, 256, kernel_size=(7,), stride=(1,), padding=(3,), bias=False)
        (bn2): BatchNorm1d(256, eps=1e-05, momentum=0.1, affine=True, track_running_stats=True)
        (dropout): Dropout(p=0.2, inplace=False)
      )
      (4): BasicBlock(
        (conv1): Conv1d(256, 256, kernel_size=(7,), stride=(1,), padding=(3,), bias=False)
        (bn1): BatchNorm1d(256, eps=1e-05, momentum=0.1, affine=True, track_running_stats=True)
        (relu): ReLU(inplace=True)
        (conv2): Conv1d(256, 256, kernel_size=(7,), stride=(1,), padding=(3,), bias=False)
        (bn2): BatchNorm1d(256, eps=1e-05, momentum=0.1, affine=True, track_running_stats=True)
        (dropout): Dropout(p=0.2, inplace=False)
      )
      (5): BasicBlock(
        (conv1): Conv1d(256, 256, kernel_size=(7,), stride=(1,), padding=(3,), bias=False)
        (bn1): BatchNorm1d(256, eps=1e-05, momentum=0.1, affine=True, track_running_stats=True)
        (relu): ReLU(inplace=True)
        (conv2): Conv1d(256, 256, kernel_size=(7,), stride=(1,), padding=(3,), bias=False)
        (bn2): BatchNorm1d(256, eps=1e-05, momentum=0.1, affine=True, track_running_stats=True)
        (dropout): Dropout(p=0.2, inplace=False)
      )
    )
    (layer4): Sequential(
      (0): BasicBlock(
        (conv1): Conv1d(256, 512, kernel_size=(7,), stride=(2,), padding=(3,), bias=False)
        (bn1): BatchNorm1d(512, eps=1e-05, momentum=0.1, affine=True, track_running_stats=True)
        (relu): ReLU(inplace=True)
        (conv2): Conv1d(512, 512, kernel_size=(7,), stride=(1,), padding=(3,), bias=False)
        (bn2): BatchNorm1d(512, eps=1e-05, momentum=0.1, affine=True, track_running_stats=True)
        (downsample): Sequential(
          (0): Conv1d(256, 512, kernel_size=(1,), stride=(2,), bias=False)
          (1): BatchNorm1d(512, eps=1e-05, momentum=0.1, affine=True, track_running_stats=True)
        )
        (dropout): Dropout(p=0.2, inplace=False)
      )
      (1): BasicBlock(
        (conv1): Conv1d(512, 512, kernel_size=(7,), stride=(1,), padding=(3,), bias=False)
        (bn1): BatchNorm1d(512, eps=1e-05, momentum=0.1, affine=True, track_running_stats=True)
        (relu): ReLU(inplace=True)
        (conv2): Conv1d(512, 512, kernel_size=(7,), stride=(1,), padding=(3,), bias=False)
        (bn2): BatchNorm1d(512, eps=1e-05, momentum=0.1, affine=True, track_running_stats=True)
        (dropout): Dropout(p=0.2, inplace=False)
      )
      (2): BasicBlock(
        (conv1): Conv1d(512, 512, kernel_size=(7,), stride=(1,), padding=(3,), bias=False)
        (bn1): BatchNorm1d(512, eps=1e-05, momentum=0.1, affine=True, track_running_stats=True)
        (relu): ReLU(inplace=True)
        (conv2): Conv1d(512, 512, kernel_size=(7,), stride=(1,), padding=(3,), bias=False)
        (bn2): BatchNorm1d(512, eps=1e-05, momentum=0.1, affine=True, track_running_stats=True)
        (dropout): Dropout(p=0.2, inplace=False)
      )
    )
    (avgpool): AdaptiveAvgPool1d(output_size=1)
  )
  (bottleneck_layer): Sequential(
    (0): Linear(in_features=512, out_features=256, bias=True)
    (1): ReLU()
  )
  (classifier_layer): Linear(in_features=256, out_features=4, bias=True)
  (adapt_loss): TransferLoss(
    (loss_func): THREEMMDLoss()
  )
  (criterion): CrossEntropyLoss()
)
initial_lr 1.0
transfer_world
1.8.1+cu111
True
LEN: 0 0
LOADER: <data_loader.InfiniteDataLoader object at 0x7fa977ffa280> <data_loader.InfiniteDataLoader object at 0x7fa97045c250>
N: 100
trian begin
trian end
USE PMMD
n_person 1995
nohup: ignoring input
twommd 2022 77G 45 DAN/DAN.yaml
…
transfer
TRAIN Length: 2593 255 TEST Length: 55571 1995
DATA_PROFILE   train: 2593 train2: 55571 test: 55571
DATASET.SHAPE: <data_loader.GetLoader object at 0x7fa1a6cdc6d0> True
DATASET.SHAPE: <data_loader.GetLoader object at 0x7fa1a6a3ed60> True
DATASET.SHAPE: <data_loader.GetLoader object at 0x7fa19e69fbe0> False
CLASS: 4 1995
LLL: {}
BOTTLENECK_LIST: [Linear(in_features=512, out_features=256, bias=True), ReLU()]
TYPE: {'loss_type': 'twommd', 'max_iter': 20000, 'num_class': 4, 'my_person_item': <my_person_item.PersonItem object at 0x7fa19e6e7d60>}
TransferNet(
  (base_network): ResNet(
    (conv1): Conv1d(3, 64, kernel_size=(3,), stride=(2,), padding=(1,), bias=False)
    (bn1): BatchNorm1d(64, eps=1e-05, momentum=0.1, affine=True, track_running_stats=True)
    (relu): ReLU(inplace=True)
    (maxpool): MaxPool1d(kernel_size=3, stride=2, padding=1, dilation=1, ceil_mode=False)
    (layer1): Sequential(
      (0): BasicBlock(
        (conv1): Conv1d(64, 64, kernel_size=(7,), stride=(1,), padding=(3,), bias=False)
        (bn1): BatchNorm1d(64, eps=1e-05, momentum=0.1, affine=True, track_running_stats=True)
        (relu): ReLU(inplace=True)
        (conv2): Conv1d(64, 64, kernel_size=(7,), stride=(1,), padding=(3,), bias=False)
        (bn2): BatchNorm1d(64, eps=1e-05, momentum=0.1, affine=True, track_running_stats=True)
        (dropout): Dropout(p=0.2, inplace=False)
      )
      (1): BasicBlock(
        (conv1): Conv1d(64, 64, kernel_size=(7,), stride=(1,), padding=(3,), bias=False)
        (bn1): BatchNorm1d(64, eps=1e-05, momentum=0.1, affine=True, track_running_stats=True)
        (relu): ReLU(inplace=True)
        (conv2): Conv1d(64, 64, kernel_size=(7,), stride=(1,), padding=(3,), bias=False)
        (bn2): BatchNorm1d(64, eps=1e-05, momentum=0.1, affine=True, track_running_stats=True)
        (dropout): Dropout(p=0.2, inplace=False)
      )
    )
    (layer2): Sequential(
      (0): BasicBlock(
        (conv1): Conv1d(64, 128, kernel_size=(7,), stride=(2,), padding=(3,), bias=False)
        (bn1): BatchNorm1d(128, eps=1e-05, momentum=0.1, affine=True, track_running_stats=True)
        (relu): ReLU(inplace=True)
        (conv2): Conv1d(128, 128, kernel_size=(7,), stride=(1,), padding=(3,), bias=False)
        (bn2): BatchNorm1d(128, eps=1e-05, momentum=0.1, affine=True, track_running_stats=True)
        (downsample): Sequential(
          (0): Conv1d(64, 128, kernel_size=(1,), stride=(2,), bias=False)
          (1): BatchNorm1d(128, eps=1e-05, momentum=0.1, affine=True, track_running_stats=True)
        )
        (dropout): Dropout(p=0.2, inplace=False)
      )
      (1): BasicBlock(
        (conv1): Conv1d(128, 128, kernel_size=(7,), stride=(1,), padding=(3,), bias=False)
        (bn1): BatchNorm1d(128, eps=1e-05, momentum=0.1, affine=True, track_running_stats=True)
        (relu): ReLU(inplace=True)
        (conv2): Conv1d(128, 128, kernel_size=(7,), stride=(1,), padding=(3,), bias=False)
        (bn2): BatchNorm1d(128, eps=1e-05, momentum=0.1, affine=True, track_running_stats=True)
        (dropout): Dropout(p=0.2, inplace=False)
      )
    )
    (layer3): Sequential(
      (0): BasicBlock(
        (conv1): Conv1d(128, 256, kernel_size=(7,), stride=(2,), padding=(3,), bias=False)
        (bn1): BatchNorm1d(256, eps=1e-05, momentum=0.1, affine=True, track_running_stats=True)
        (relu): ReLU(inplace=True)
        (conv2): Conv1d(256, 256, kernel_size=(7,), stride=(1,), padding=(3,), bias=False)
        (bn2): BatchNorm1d(256, eps=1e-05, momentum=0.1, affine=True, track_running_stats=True)
        (downsample): Sequential(
          (0): Conv1d(128, 256, kernel_size=(1,), stride=(2,), bias=False)
          (1): BatchNorm1d(256, eps=1e-05, momentum=0.1, affine=True, track_running_stats=True)
        )
        (dropout): Dropout(p=0.2, inplace=False)
      )
      (1): BasicBlock(
        (conv1): Conv1d(256, 256, kernel_size=(7,), stride=(1,), padding=(3,), bias=False)
        (bn1): BatchNorm1d(256, eps=1e-05, momentum=0.1, affine=True, track_running_stats=True)
        (relu): ReLU(inplace=True)
        (conv2): Conv1d(256, 256, kernel_size=(7,), stride=(1,), padding=(3,), bias=False)
        (bn2): BatchNorm1d(256, eps=1e-05, momentum=0.1, affine=True, track_running_stats=True)
        (dropout): Dropout(p=0.2, inplace=False)
      )
    )
    (layer4): Sequential(
      (0): BasicBlock(
        (conv1): Conv1d(256, 512, kernel_size=(7,), stride=(2,), padding=(3,), bias=False)
        (bn1): BatchNorm1d(512, eps=1e-05, momentum=0.1, affine=True, track_running_stats=True)
        (relu): ReLU(inplace=True)
        (conv2): Conv1d(512, 512, kernel_size=(7,), stride=(1,), padding=(3,), bias=False)
        (bn2): BatchNorm1d(512, eps=1e-05, momentum=0.1, affine=True, track_running_stats=True)
        (downsample): Sequential(
          (0): Conv1d(256, 512, kernel_size=(1,), stride=(2,), bias=False)
          (1): BatchNorm1d(512, eps=1e-05, momentum=0.1, affine=True, track_running_stats=True)
        )
        (dropout): Dropout(p=0.2, inplace=False)
      )
      (1): BasicBlock(
        (conv1): Conv1d(512, 512, kernel_size=(7,), stride=(1,), padding=(3,), bias=False)
        (bn1): BatchNorm1d(512, eps=1e-05, momentum=0.1, affine=True, track_running_stats=True)
        (relu): ReLU(inplace=True)
        (conv2): Conv1d(512, 512, kernel_size=(7,), stride=(1,), padding=(3,), bias=False)
        (bn2): BatchNorm1d(512, eps=1e-05, momentum=0.1, affine=True, track_running_stats=True)
        (dropout): Dropout(p=0.2, inplace=False)
      )
    )
    (avgpool): AdaptiveAvgPool1d(output_size=1)
  )
  (bottleneck_layer): Sequential(
    (0): Linear(in_features=512, out_features=256, bias=True)
    (1): ReLU()
  )
  (classifier_layer): Linear(in_features=256, out_features=4, bias=True)
  (adapt_loss): TransferLoss(
    (loss_func): TWOMMDLoss()
  )
  (criterion): CrossEntropyLoss()
)
initial_lr 1.0
transfer_world
1.8.1+cu111
True
LEN: 0 0
LOADER: <data_loader.InfiniteDataLoader object at 0x7fa1a6a3e280> <data_loader.InfiniteDataLoader object at 0x7fa19e69f760>
N: 100
trian begin
trian end
n_person 1995
SAMPLE
F1_MI: 0.4556333339331666 F1_MA: 0.3627197190038141
…
